…
     0     0     0     0     0     0     0     0     0]
Vectorizing deft_dev
Vectorizing dataset - Words
Validation Inputs
[[   30  5429    27 ...     0     0     0]
 [  904 11025 12648 ...     0     0     0]
 [18463     2   327 ...     0     0     0]
 ...
 [   95    30  3684 ...     0     0     0]
 [ 1902    30    94 ...     0     0     0]
 [   25    10    40 ...     0     0     0]]



Model: "sequential"
_________________________________________________________________
Layer (type)                 Output Shape              Param #   
=================================================================
embedding (Embedding)        (None, 141, 300)          8496600   
_________________________________________________________________
bidirectional (Bidirectional (None, 200)               320800    
_________________________________________________________________
dropout (Dropout)            (None, 200)               0         
_________________________________________________________________
dense (Dense)                (None, 50)                10050     
_________________________________________________________________
dropout_1 (Dropout)          (None, 50)                0         
_________________________________________________________________
dense_1 (Dense)              (None, 1)                 51        
_________________________________________________________________
activation (Activation)      (None, 1)                 0         
=================================================================
Total params: 8,827,501
Trainable params: 8,827,501
Non-trainable params: 0
_________________________________________________________________
None
Epoch 1/100
  1/246 [..............................] - ETA: 0s - loss: 0.6943 - precision: 0.3902 - recall: 0.7273 - accuracy: 0.5156 - F1Score: 0.4921
…
