Loading spacy
Loading embeddings: /home/haemanth/work/project/glove_w2v.p
Loaded  deft  data
Loaded  deft  data
Getting maxlen
Maxlen:  141
Vectorizing dataset
Build dependency relations
Vectorizing deft_dev
Vectorizing dataset
Build dependency relations
Train with  15714
Model: "sequential"
_________________________________________________________________
Layer (type)                 Output Shape              Param #   
=================================================================
bidirectional (Bidirectional (None, 200)               407200    
_________________________________________________________________
dropout (Dropout)            (None, 200)               0         
_________________________________________________________________
dense (Dense)                (None, 50)                10050     
_________________________________________________________________
dropout_1 (Dropout)          (None, 50)                0         
_________________________________________________________________
dense_1 (Dense)              (None, 1)                 51        
_________________________________________________________________
activation (Activation)      (None, 1)                 0         
=================================================================
Total params: 417,301
Trainable params: 417,301
Non-trainable params: 0
_________________________________________________________________
None
training data shape (15714, 282, 408)
valid data shape (1747, 282, 408)
No. of class 0: 10727
No. of class 1: 4987
Weight for class 0: 0.73
Weight for class 1: 1.58
Epoch 1/100
 1/
…
