Loading spacy
Loading embeddings: /home/haemanth/work/project/glove_w2v.p
Loaded  deft  data
Loaded  deft  data
Getting maxlen
Maxlen:  141
Vectorizing dataset
Build dependency relations
Vectorizing deft_dev
Vectorizing dataset
Build dependency relations
Train with  15714
Model: "sequential"
_________________________________________________________________
Layer (type)                 Output Shape              Param #   
=================================================================
conv1d (Conv1D)              (None, 280, 100)          103900    
_________________________________________________________________
max_pooling1d (MaxPooling1D) (None, 70, 100)           0         
_________________________________________________________________
bidirectional (Bidirectional (None, 200)               160800    
_________________________________________________________________
dropout (Dropout)            (None, 200)               0         
_________________________________________________________________
dense (Dense)                (None, 1)                 201       
_________________________________________________________________
activation (Activation)      (None, 1)                 0         
=================================================================
Total params: 264,901
Trainable params: 264,901
Non-trainable params: 0
_________________________________________________________________
None
training data shape (15714, 282, 346)
valid data shape (1747, 282, 346)
Epoch 1/100
 1/62 [..............................] - ETA: 0s - loss: 0.7012 - precision: 0.3000 - recall: 0.
…
