Loading spacy
Loading embeddings: /home/haemanth/work/project/google_w2v.p
Loaded  deft  data
Loaded  deft  data
Getting maxlen
Maxlen:  141
Vectorizing dataset
Build dependency relations
Vectorizing deft_dev
Vectorizing dataset
Build dependency relations
Train with  15714
Model: "sequential"
_________________________________________________________________
Layer (type)                 Output Shape              Param #   
=================================================================
bidirectional (Bidirectional (None, 200)               357600    
_________________________________________________________________
dropout (Dropout)            (None, 200)               0         
_________________________________________________________________
dense (Dense)                (None, 50)                10050     
_________________________________________________________________
dropout_1 (Dropout)          (None, 50)                0         
_________________________________________________________________
dense_1 (Dense)              (None, 1)                 51        
_________________________________________________________________
activation (Activation)      (None, 1)                 0         
=================================================================
Total params: 367,701
Trainable params: 367,701
Non-trainable params: 0
_________________________________________________________________
None
training data shape (15714, 141, 346)
valid data shape (1747, 141, 346)
Epoch 1/100
 1/62 [..............................] - ETA: 0s - loss: 0.6694 - precision: 0.3750 - recall: 0.
…
