…
Layer (type)                    Output Shape         Param #     Connected to                     
==================================================================================================
Input_1 (InputLayer)            [(None, 141)]        0                                            
__________________________________________________________________________________________________
Input_2 (InputLayer)            [(None, 141)]        0                                            
__________________________________________________________________________________________________
embedding (Embedding)           (None, 141, 300)     8496600     Input_1[0][0]                    
__________________________________________________________________________________________________
embedding_1 (Embedding)         (None, 141, 100)     6200        Input_2[0][0]                    
__________________________________________________________________________________________________
concatenate (Concatenate)       (None, 141, 400)     0           embedding[0][0]                  
                                                                 embedding_1[0][0]                
__________________________________________________________________________________________________
bidirectional (Bidirectional)   (None, 141, 200)     400800      concatenate[0][0]                
__________________________________________________________________________________________________
conv1d (Conv1D)                 (None, 139, 128)     76928       bidirectional[0][0]              
__________________________________________________________________________________________________
max_pooling1d (MaxPooling1D)    (None, 69, 128)      0           conv1d[0][0]                     
__________________________________________________________________________________________________
bidirectional_1 (Bidirectional) (None, 69, 100)      71600       max_pooling1d[0][0]              
__________________________________________________________________________________________________
conv1d_1 (Conv1D)               (None, 67, 64)       19264       bidirectional_1[0][0]            
__________________________________________________________________________________________________
max_pooling1d_1 (MaxPooling1D)  (None, 33, 64)       0           conv1d_1[0][0]                   
__________________________________________________________________________________________________
flatten (Flatten)               (None, 2112)         0           max_pooling1d_1[0][0]            
__________________________________________________________________________________________________
dense (Dense)                   (None, 24)           50712       flatten[0][0]                    
__________________________________________________________________________________________________
dropout (Dropout)               (None, 24)           0           dense[0][0]                      
__________________________________________________________________________________________________
dense_1 (Dense)                 (None, 1)            25          dropout[0][0]                    
==================================================================================================
Total params: 9,122,129
Trainable params: 625,529
Non-trainable params: 8,496,600
__________________________________________________________________________________________________
None
Epoch 1/100
  1/246 [..............................] - ETA: 0s - loss:
…
